model/projectPromptRoberta/1_model_AE.pkl (torch, 24147 bytes, 4 tensors)

weight f4 [3, 768]
0.01227315 -0.0138208885 0.022257723 0.03153673 0.020447062 -0.0065305587 -0.03198118 -0.027752066
-0.0034034136 -0.027747396 -0.009587556 -0.033879302 -0.012407243 -0.02040034 -0.027832834 -0.011254317
-0.007318986 -0.052247047 0.023324752 0.011905934 0.04808752 -0.009847654 -0.04525377 0.053581595
-0.032151997 -0.00046264805 -0.0060408404 -0.012749386 -0.008702627 0.007866071 -0.04945172 -0.025338816
-0.05473404 -0.012230247 0.020688273 -0.0031361445 -0.053658225 -0.0036909154 -0.009120562 0.0034477303
-0.017230196 0.06902037 -0.034985192 0.020855362 0.02923395 0.03290685 0.026233302 -0.02594075
0.062267873 -0.042649478 0.0041503613 -0.00072531844 0.035555992 -0.0089349365 -0.050161667 -0.044891857
0.0052194307 -0.038301386 0.017934429 -0.039315563 -0.018921416 0.006407287 0.01322738 -0.0033594586
-0.0037113708 -0.016691083 -0.030319953 0.020582285 0.013766709 -0.0029134178 -0.015772512 -0.029306905
0.025479198 0.015004131 -0.041863274 -0.06869996 -0.016009638 0.0418607 0.0017498938 -0.0039560893
0.031051217 -0.03220665 0.005862345 -0.030323882 0.030075848 -0.06929389 -0.0067173652 0.0032624486
-0.022355994 -0.055474963 -0.029806864 0.018751059 -0.049755167 0.038389295 0.020360392 -0.0096235415
0.0049570156 -0.026392814 -0.003803761 -0.025970696 0.001517494 0.06574586 -0.03546661 -0.05112764
0.0012365488 -0.022079444 -0.027498415 -0.010764429 0.007160886 0.019931631 0.06448903 0.015005437
0.023086904 0.021005632 -0.050758146 -0.081785016 -0.018037803 -0.0018837041 -0.019490251 0.060674395
-0.027108097 0.02593885 0.012064261 0.0073583857 -0.0021009173 -0.018093137 0.03818196 -0.00791644
0.048218977 0.03666761 0.008891197 -0.035333462 -0.007386359 0.02456545 0.009390658 0.009154162
-0.0023748083 -0.038951695 0.006520732 -0.04719817 0.042799592 0.015348771 -0.113714896 0.0043231826
0.03633723 0.022340886 0.018466307 -0.027966773 -0.029086338 5.108957e-06 -0.049979642 0.009011105
-0.019449128 -0.04155223 0.030275375 0.07262098 0.0037639004 -0.013435536 -0.053241838 0.060375903
0.011233993 -0.017893443 -0.05598275 0.012569545 0.049134392 0.027139021 -0.021574084 -0.022073556
-0.012449331 0.051908754 -0.04140092 0.047857855 0.020672118 -0.036298208 0.055566918 0.049606245
-0.01575317 -0.0037422474 0.072376 0.00833593 -0.026324045 -0.0001303988 0.02831546 0.003168423
0.041755553 -0.03644006 0.07796558 -0.020626077 -0.020844715 -0.036714446 -0.012398208 0.0053460463
0.034122813 -0.03417556 -0.0098053785 0.083232954 -0.050163217 0.00018395844 0.03101387 0.018829511
-0.020556284 0.012678275 -0.011253281 0.007584068 0.010039126 -0.03024255 0.025568496 -0.038238104
0.029376054 0.015380312 -0.059416514 0.031385437 0.0057162005 -0.069920644 0.026716646 0.0007107032
0.06176512 0.0027317817 -0.02237459 -0.031011326 0.020196619 0.045156073 -0.018561872 0.0059556696
0.03446396 0.009017012 -0.030098543 -0.0043725083 0.002060269 -0.011599525 -0.024567466 0.04075343
0.03726748 0.010482472 -0.049601045 -0.03396452 0.044007808 -0.0012738401 0.010586012 -0.046540547
-0.0051577236 -0.03912722 0.010301049 -0.017029062 0.04311185 -0.014818065 0.0064252983 0.0048136036
-0.013885102 0.06559531 -0.020526437 0.016923424 0.03309775 0.043005712 -0.015061915 0.026906082
00000000: 5215 493c 0271 62bc d455 b63c a82c 013d
00000010: 9980 a73c 4cfe d5bb b3fe 02bd 4d58 e3bc
00000020: ce0b 5fbb 824e e3bc 2015 1dbc 06c5 0abd
00000030: c047 4bbc 9d1e a7bc af01 e4bc 0764 38bc
00000040: 1bd4 efbb 0001 56bd 8d13 bf3c 1b11 433c
00000050: 6bf7 443d 0e58 21bc 045c 39bd 6078 5b3d
00000060: d0b1 03bd 928f f2b9 3ef2 c5bb cde2 50bc
00000070: 7795 0ebc b1e0 003c e38d 4abd 5993 cfbc
00000080: cd30 60bd 6061 48bc 747a a93c c687 4dbb
00000090: bac8 5bbd 49e3 71bb 696e 15bc 51f3 613b
000000a0: 5726 8dbc 8d5a 8d3d a24c 0fbd ddd8 aa3c
000000b0: 097c ef3c 55c9 063d 39e7 d63c b281 d4bc
000000c0: 990c 7f3d 38b1 2ebd c1ff 873b 4c23 3eba
000000d0: 29a3 113d d763 12bc 5276 4dbd 86e0 37bd
000000e0: c207 ab3b eae1 1cbd 39eb 923c 5b09 21bd
000000f0: 1601 9bbc 38f4 d13b a7b7 583c 5d2a 5cbb
00000100: 783a 73bb bdbb 88bc 8d61 f8bc 2e9c a83c
00000110: c38d 613c 0aef 3ebb 5b35 81bc 0915 f0bc
00000120: c0b9 d03c e3d3 753c d378 2bbd 91b2 8cbd
00000130: a526 83bc 2076 2b3d b15c e53a 15a2 81bb
00000140: 1f5f fe3c 1feb 03bd ea18 c03b ca69 f8bc
00000150: a061 f63c f4e9 8dbd 581d dcbb cece 553b
00000160: eb23 b7bc b739 63bd 862d f4bc d29b 993c
00000170: 13cc 4bbd 183e 1d3d d6ca a63c 0fac 1dbc
00000180: 766e a23b be35 d8bc 8548 79bb 7fc0 d4bc
00000190: a6e6 c63a c4a5 863d 7045 11bd 376b 51bd
000001a0: b113 a23a f3df b4bc 5b44 e1bc 4a5d 30bc
000001b0: dea5 ea3b a947 a33c d312 843d 5dd9 753c
000001c0: bf20 bd3c 0114 ac3c c6e7 4fbd e77e a7bd
000001d0: 04c4 93bc 9fe6 f6ba 05aa 9fbc b785 783d
000001e0: cd11 debc b67d d43c 2ea9 453c 9d1e f13b
000001f0: 8baf 09bb 0f38 94bc b064 1c3d f5b3 01bc
00000200: 4381 453d c730 163d 62ac 113c d2b9 10bd
00000210: 4509 f2bb 7c3d c93c 46db 193c 57fb 153c
00000220: aca2 1bbb d08b 1fbd ddab d53b de52 41bd
00000230: a04e 2f3d 6979 7b3c 5be3 e8bd 7ca9 8d3b
00000240: 59d6 143d 3c04 b73c a746 973c 931a e5bc
00000250: 7946 eebc 9b6d ab36 74b7 4cbd 50a3 133c
00000260: c753 9fbc ac32 2abd 1004 f83c 4fba 943d
00000270: c5ab 763b b920 5cbc 1d14 5abd b94c 773d
00000280: c80e 383c 4595 92bc 2b4e 65bd 7ef0 4d3c
00000290: 2541 493d a752 de3c 22bc b0bc 9ad3 b4bc
000002a0: 47f8 4bbc 469e 543d 0394 29bd 9906 443d
000002b0: 9358 a93c 6ead 14bd 239a 633d eb2f 4b3d
000002c0: cb0c 81bc 7e40 75bb de39 943d 6d93 083c
000002d0: 86a5 d7bc a9bb 08b9 d3f5 e73c 51a5 4f3b
000002e0: df07 2b3d 2c42 15bd 6bac 9f3d 05f8 a8bc
000002f0: 89c2 aabc e361 16bd da21 4bbc e32d af3b
00000300: 5dc4 0b3d acfb 0bbd bda6 20bc 0a76 aa3d
00000310: f277 4dbd f8e4 4039 cd10 fe3c 5940 9a3c
00000320: a765 a8bc 8ab8 4f3c ae5f 38bc c683 f83b
00000330: 257b 243c 39bf f7bc 0675 d13c 8f9f 1cbd
00000340: 0da6 f03c b4fd 7b3c bb5e 73bd 048e 003d
00000350: f74e bb3b 8e32 8fbd dedc da3c 7c4e 3a3a
00000360: 6cfd 7c3d b107 333b eb4a b7bc 770b febc
00000370: 6173 a53c 93f5 383d 110f 98bc c727 c33b
00000380: 152a 0d3d 17bc 133c 3891 f6bc 4247 8fbb
00000390: 9405 073b ef0b 3ebc b641 c9bc 12ed 263d
000003a0: c9a5 183d adbe 2b3c 772a 4bbd 611e 0bbd
000003b0: 8841 343d fbf6 a6ba f470 2d3c 4da1 3ebd
000003c0: 1f02 a9bb dd43 20bd bbc5 283c 8880 8bbc
000003d0: 0d96 303d 78c7 72bc 4f8b d23b 6fbb 9d3b
000003e0: 577e 63bc d556 863d 0f27 a8bc fea2 8a3c
000003f0: 8291 073d c226 303d 40c6 76bc 256a dc3c

bias f4 [3]
0.04563802 -0.020806992 -0.012694082
00000000: efee 3a3d 6d73 aabc d7fa 4fbc

weight f4 [768, 3]
-0.14693616 0.13784611 -0.09293798 -0.009070593 -0.5523682 0.04111366 0.5189273 0.051198825
-0.13532034 -0.63990396 -0.08015161 0.2531419 0.3152061 0.2861544 -0.23717888 -0.5017512
-0.06774838 0.5451726 -0.35706922 -0.5043966 -0.09765766 -0.03510409 0.5546707 0.49425837
-0.3202733 0.24485101 -0.014857314 -0.4988848 -0.51969975 0.02576322 -0.50619376 0.40076628
-0.4590698 -0.27531254 -0.05098908 0.17136899 -0.11049427 0.2592392 0.47175744 0.26199713
0.36627764 0.42796457 0.34040695 0.26550782 0.10972001 -0.17072994 0.35082746 -0.021683488
0.46408617 -0.47896528 -0.11727444 -0.4338113 -0.35929975 -0.04581291 -0.52356654 -0.21601118
-0.22474612 -0.3051859 -0.5041202 0.16838932 0.25490516 -0.3117712 0.3174913 0.5546199
0.21991807 0.42013052 0.5011927 -0.42877558 -0.3175364 0.23445627 0.4212142 0.10717584
0.08833607 -0.3703036 -0.081036836 -0.5293463 -0.026536347 0.35165808 0.56117076 0.39365497
-0.21494988 -0.44994918 -0.40754518 -0.3788595 -0.2028686 -0.37299445 -0.50808156 -0.17137359
0.42407793 0.08407817 0.50507396 -0.40642238 -0.15256597 -0.3233685 0.4416214 -0.28817275
-0.27271864 -0.22426681 -0.080559425 0.09343841 -0.27341774 0.31624052 0.2857446 0.28403032
-0.42340064 -0.49115047 0.32615036 0.3014387 0.3278367 0.48019022 0.14091623 0.24123389
-0.59120053 -0.5525926 0.49095604 -0.085763656 0.29151332 0.3945428 0.117681585 -0.591283
-0.44426206 0.014945421 0.03967665 -0.35843787 -0.035505924 0.15330684 -0.122073725 0.18391666
-0.2571661 0.3227862 0.32535043 -0.114593215 0.39938256 0.3570357 0.31487378 -0.20108809
0.18201582 0.48740235 -0.044568647 -0.048880488 0.5809367 -0.37638512 0.036248617 0.12091064
-0.06050091 -0.56223065 -0.35385376 0.44405714 -0.35384062 -0.51473355 -0.27638662 0.564858
-0.42104113 -0.069588795 -0.37195727 -0.56618774 -0.26872653 -0.29276058 0.49250302 -0.5838803
0.2728934 0.030149246 -0.44517216 0.21584107 0.299713 0.4735838 0.47807884 -0.528557
-0.15674014 -0.2818885 -0.041005082 -0.028166734 -0.4354494 -0.008560278 0.2590636 0.34720728
-0.038520776 0.41967878 0.5234769 0.042870574 -0.45820728 0.06048027 0.36614388 -0.4148053
-0.14484854 -0.44328672 0.098366596 -0.15133809 -0.48918805 -0.54545015 -0.09268368 -0.23882477
0.20419459 -0.4861901 0.19518517 0.15157871 -0.50290143 0.20799766 -0.19647379 0.4483882
0.3953398 0.36372036 -0.03461482 -0.28732356 0.31321162 0.17455378 -0.58136636 0.47220963
-0.01602482 -0.5032114 0.14903824 0.2768269 -0.429314 -0.07865009 -0.5315958 0.36060044
-0.45592675 -0.30633563 -0.49158055 0.41381335 0.05968283 0.072119355 -0.24201544 -0.018852834
-0.024474697 0.47729778 0.13919692 0.13762683 -0.6039793 0.41758206 -0.489342 -0.3000892
-0.017921368 0.31326577 0.49657917 0.09025551 0.5713594 -0.24999441 0.12330755 -0.34899002
-0.25207442 -0.53742665 -0.5117206 0.21107651 -0.48479077 -0.4206449 -0.3271696 0.21384415
0.29434672 -0.44219047 0.042422332 -0.5509193 0.031080004 -0.5087141 -0.26866886 0.16598243
00000000: 6f76 16be 8827 0d3e 4556 bebd d39c 14bc
00000010: 0168 0dbf cc66 283d 6bd8 043f dcb5 513d
00000020: 6a91 0abe bfd0 23bf 8726 a4bd d19b 813e
00000030: b262 a13e d482 923e 05df 72be c472 00bf
00000040: aabf 8abd 6e90 0b3f c7d1 b6be 2320 01bf
00000050: bd00 c8bd 4ec9 0fbd e6fe 0d3f 6f0f fd3e
00000060: ddfa a3be 39ba 7a3e 176c 73bc d46d ffbe
00000070: 0b0b 05bf 630d d33c ea95 01bf 3d31 cd3e
00000080: 320b ebbe c4f5 8cbe edd9 50bd 5a7b 2f3e
00000090: d24a e2bd 00bb 843e 318a f13e 7d24 863e
000000a0: be88 bb3e 2c1e db3e d249 ae3e a4f0 873e
000000b0: e2b4 e03d d4d3 2ebe a89f b33e 92a1 b1bc
000000c0: b49c ed3e f03a f5be 952d f0bd 841c debe
000000d0: 23f6 b7be 51a6 3bbd 7508 06bf 0932 5dbe
000000e0: d923 66be 5441 9cbe 050e 01bf 406e 2c3e
000000f0: ee82 823e 7aa0 9fbe 388e a23e 92fb 0d3f
00000100: 3432 613e 591b d73e 2a4e 003f 7988 dbbe
00000110: 2294 a2be 4e15 703e 63a9 d73e 027f db3d
00000120: 8be9 b43d 6f98 bdbe a4f6 a5bd 3d83 07bf
00000130: c162 d9bc 870c b43e e3a8 0f3f 258d c93e
00000140: d21b 5cbe bd5f e6be c3a9 d0be dff9 c1be
00000150: c9bc 4fbe 21f9 bebe a211 02bf 8f7c 2fbe
00000160: be20 d93e 2d31 ac3d 874c 013f 9816 d0be
00000170: 413a 1cbe 8e90 a5be 331c e23e 618b 93be
00000180: c7a1 8bbe 33a6 65be 57fc a4bd a35c bf3d
00000190: 69fd 8bbe 47ea a13e 1e4d 923e 6c6c 913e
000001a0: f8c7 d8be 1378 fbbe 2efd a63e 2c56 9a3e
000001b0: 36da a73e 7edb f53e 584c 103e 0406 773e
000001c0: eb58 17bf b576 0dbf 975e fb3e dba4 afbd
000001d0: 3c41 953e 8401 ca3e 0b03 f13d 535e 17bf
000001e0: 5176 e3be a4dd 743c fc83 223d 2b85 b7be
000001f0: a96e 11bd 78fc 1c3e ca01 fabd a654 3c3e
00000200: 46ab 83be 3c44 a53e 5594 a63e d9af eabd
00000210: df7b cc3e 62cd b63e 2337 a13e 09ea 4dbe
00000220: 5b62 3a3e cd8c f93e 9d8d 36bd e836 48bd
00000230: 44b8 143f 8db5 c0be 6e79 143d ff9f f73d
00000240: cdcf 77bd 59ee 0fbf 522c b5be 755b e33e
00000250: 992a b5be 94c5 03bf 8c82 8dbe 899a 103f
00000260: b492 d7be 9284 8ebd 2f71 bebe aef1 10bf
00000270: 8696 89be b7e4 95be 5b29 fc3e 2e79 15bf
00000280: afb8 8b3e 8dfb f63c 9bed e3be 7105 5d3e
00000290: fb73 993e 9379 f23e c0c6 f43e 834f 07bf
000002a0: 7d80 20be b153 90be f2f4 27bd ecbd e6bc
000002b0: 39f3 debe 6940 0cbc fca3 843e 27c5 b13e
000002c0: f6c7 1dbd 23e0 d63e 9502 063f 0e99 2f3d
000002d0: 259a eabe 29ba 773d 3677 bb3e 5c61 d4be
000002e0: 2d53 14be 7af6 e2be 6d74 c93d 5ff8 1abe
000002f0: db76 fabe 9fa2 0bbf f1d0 bdbd 7b8e 74be
00000300: 6318 513e e9ed f8be 9fde 473e 7337 1b3e
00000310: 26be 00bf 57fd 543e 6d30 49be 2393 e53e
00000320: fa69 ca3e 8e39 ba3e 45c8 0dbd 131c 93be
00000330: 465d a03e 3abe 323e 6dd4 14bf 76c5 f13e
00000340: 7c46 83bc 76d2 00bf 7b9d 183e 41bc 8d3e
00000350: 0bcf dbbe 4c13 a1bd aa16 08bf 9fa0 b83e
00000360: 3b6f e9be 06d8 9cbe 72b0 fbbe 58df d33e
00000370: fc75 743d 50b3 933d e5d2 77be 4271 9abc
00000380: 297f c8bc 6060 f43e a389 0e3e 0cee 0c3e
00000390: 639e 1abf 51cd d53e 098b fabe 4ba5 99be
000003a0: d5cf 92bc 5f64 a03e a03f fe3e e1d7 b83d
000003b0: 9c44 123f 89fe 7fbe ab88 fc3d d2ae b2be
000003c0: e60f 81be cb94 09bf 1f00 03bf 7124 583e
000003d0: 7f36 f8be c55e d7be c682 a7be f6f9 5a3e
000003e0: 9db4 963e ca66 e2be 0ac3 2d3d 0c09 0dbf
000003f0: 7e9b fe3c 163b 02bf f78e 89be 4cf7 293e

bias f4 [768]
-0.1724841 0.39894792 0.60712105 0.4524332 -0.2179035 -0.43971586 -0.051866755 0.12308022
-0.28610587 0.2511223 0.24936885 -0.16928476 -0.2027915 -0.61974823 0.4060419 -0.06672007
-0.36822227 0.39260495 0.12551785 -0.36610898 -0.43761817 -0.27554303 0.56711185 -0.6114533
0.015279449 0.058647227 0.5398184 -0.28740954 0.42299995 0.47861287 0.22998232 0.06319924
-0.34810746 0.08388908 -0.18015008 -0.2668086 -0.17757927 0.58819526 -0.40030196 0.4436011
-0.40772435 -0.25954157 -0.10080703 0.51416785 0.2669038 -0.43232843 0.38927907 0.16786581
0.029226393 -0.29100397 0.489278 -0.06305934 0.09758172 -0.41772616 -0.43385687 -0.5894392
-0.3177676 -0.28722072 0.4775605 0.30645153 0.5304193 0.46905088 0.21302517 -0.5744586
-0.19033028 -0.27629122 0.3030379 -0.09981986 -0.18099974 0.060206573 0.3867456 0.14219934
-0.0051523456 0.5326717 -0.5727605 -0.54122317 -0.39678752 -0.4092176 -0.21875374 -0.27617657
-0.49639356 0.33127773 0.1152142 0.4186335 -0.017073806 0.48661235 -0.03944576 -0.5395333
0.120281436 0.4404631 0.23551086 -0.28207806 0.046719573 -0.38083425 0.092580765 0.40307087
0.6592447 -0.5614077 -0.3035153 -0.36588484 0.49700126 -0.19938901 -0.008885019 0.045912333
0.23241687 0.28201127 -0.3940609 -0.04186746 0.20828459 0.04097723 -0.23555401 0.3344059
0.55635685 0.07736021 0.48965487 -0.262956 0.43547422 0.20604385 0.35595387 -0.024435325
-0.058400195 -0.25339133 -0.020138409 -0.2776574 0.13142814 -0.17584006 0.30767077 -0.41750053
-0.056149688 -0.27827343 0.17469752 -0.0984568 -0.12949406 -0.057695292 -0.08910542 0.34794295
0.5061298 -0.22919793 0.017498368 -0.40159684 -0.41578197 -0.059526816 -0.083077595 0.09421819
-0.45510653 -0.59331834 0.07452323 -0.1422834 0.49881065 0.6232593 0.71510935 -0.21613264
-0.564379 0.25409058 -0.356408 -0.04989179 -0.37613454 -0.030989027 -0.51396394 -0.22075829
-0.39140934 0.22352715 -0.024467409 0.49772564 0.115521446 -0.26699653 -0.06968208 -0.33160922
-0.59508735 -0.5048802 -0.40436798 -0.33113593 0.07798839 0.42167816 0.1888538 0.032908946
-0.08120735 -0.024877727 -0.3705427 0.11750887 0.22009213 0.109576106 0.37195304 0.38295457
-0.0016570906 0.5163634 0.12567139 -0.1121047 -0.2499361 0.17576851 -0.19782075 -0.62654597
-0.550492 -0.56309855 -0.2966932 -0.2488334 -0.309393 0.38053662 0.34938723 0.42600673
0.46757194 -0.5480125 0.46723628 0.17275749 -0.38091546 -0.0983123 0.22845775 -0.3594611
-0.038875096 -0.21833603 -0.020727644 0.47650638 -0.458381 -0.14301506 0.54561317 0.49462047
-0.12344396 -0.32440045 0.43746537 -0.5635678 -0.33470643 -0.32044023 0.44135678 -0.20270877
-0.35262293 -0.34481454 -0.6595102 0.16380903 0.46120697 -0.35224175 0.5602319 -0.6818939
0.026000833 0.4899313 -0.09340553 -0.35026786 -0.31824067 0.53003645 -0.3062747 0.5377538
-0.22087692 0.4427134 -0.33094475 -0.20949523 -0.16189395 -0.05834057 -0.49889684 0.52706397
0.4095331 0.3562983 0.37310594 0.14902502 0.22805268 0.010836692 0.051234756 -0.053616192
00000000: ac9f 30be e742 cc3e 496c 1b3f 53a5 e73e
00000010: 1822 5fbe 7022 e1be 3c72 54bd 7b11 fc3d
00000020: 787c 92be 1a93 803e 8c5a 7f3e fc58 2dbe
00000030: 93a8 4fbe d2a7 1ebf b9e4 cf3e 88a4 88bd
00000040: a187 bcbe 8403 c93e c087 003e a372 bbbe
00000050: 7d0f e0be fa13 8dbe 3e2e 113f 3488 1cbf
00000060: a756 7a3c 1338 703d 8a31 0a3f 5827 93be
00000070: 7393 d83e bf0c f53e 7c80 6b3e 9a6e 813d
00000080: 243b b2be 0ace ab3d 4379 38be 239b 88be
00000090: 57d7 35be f793 163f 61f4 ccbe af1f e33e
000000a0: 3fc1 d0be a2e2 84be eb73 cebd 81a0 033f
000000b0: 9da7 883e 275a ddbe 964f c73e 04e5 2b3e
000000c0: 306c ef3c 79fe 94be a582 fa3e 4125 81bd
000000d0: edd8 c73d 34e0 d5be 7d22 debe 7de5 16bf
000000e0: 6fb2 a2be 980e 93be cf82 f43e 37e7 9c3e
000000f0: 8fc9 073f 7027 f03e 4523 5a3e b80f 13bf
00000100: f1e5 42be 0b76 8dbe c927 9b3e 5b6e ccbd
00000110: ff57 39be 2b9b 763d 8503 c63e b49c 113e
00000120: 02d5 a8bb 2c5d 083f 6fa0 12bf 9a8d 0abf
00000130: bc27 cbbe f884 d1be fb00 60be 0467 8dbe
00000140: 4c27 febe 3c9d a93e 6cf5 eb3d 2157 d63e
00000150: 5ede 8bbc 4125 f93e e191 21bd db1e 0abf
00000160: 1d56 f63d 6184 e13e c229 713e 896c 90be
00000170: 065d 3f3d b5fc c2be fc9a bd3d 4e5f ce3e
00000180: 43c4 283f 6ab8 0fbf 5b66 9bbe 4255 bbbe
00000190: f376 fe3e a22c 4cbe 7992 11bc 920e 3c3d
000001a0: b0fe 6d3e c863 903e 5ac2 c9be 377d 2bbd
000001b0: 8e48 553e bdd7 273d 1235 71be 4037 ab3e
000001c0: 676d 0e3f 086f 9e3d 0bb4 fa3e 2ba2 86be
000001d0: 7af6 de3e 29fd 523e 963f b63e 972c c8bc
000001e0: 0b35 6fbd 82bc 81be 4ef9 a4bc 1c29 8ebe
000001f0: 1995 063e 6b0f 34be 0687 9d3e a1c2 d5be
00000200: 37fd 65bd db79 8ebe e8e3 323e b8a3 c9bd
00000210: 179a 04be e651 6cbd e77c b6bd 9425 b23e
00000220: b991 013f ddb2 6abe bd58 8f3c 1a9e cdbe
00000230: 60e1 d4be 64d2 73bd 9624 aabd 77f5 c03d
00000240: b903 e9be b6e3 17bf a39f 983d bdb2 11be
00000250: 1c64 ff3e ec8d 1f3f 6811 373f e051 5dbe
00000260: 247b 10bf 2918 823e 1c7b b6be 555b 4cbd
00000270: b594 c0be b3dc fdbc 2493 03bf 760e 62be
00000280: ce66 c8be 4de4 643e e06f c8bc e5d5 fe3e
00000290: 8296 ec3d c5b3 88be 7ab5 8ebd afc8 a9be
000002a0: a557 18bf d43f 01bf 5209 cfbe a68a a9be
000002b0: 61b8 9f3d 33e6 d73e e462 413e 88cb 063d
000002c0: 0a50 a6bd 60cc cbbc c6b7 bdbe 7ea8 f03d
000002d0: d55f 613e 7069 e03d a170 be3e 9f12 c43e
000002e0: bc32 d9ba 6430 043f 00b0 003e 2697 e5bd
000002f0: 40ef 7fbe a9fc 333e 8691 4abe 5165 20bf
00000300: 0bed 0cbf 3a27 10bf 2ce8 97be 2fce 7ebe
00000310: c268 9ebe b2d5 c23e e2e2 b23e 8e1d da3e
00000320: 9765 ef3e 8c4a 0cbf 9839 ef3e 57e7 303e
00000330: 5a07 c3be f657 c9bd d4f0 693e 490b b8be
00000340: 7e3b 1fbd 7b93 5fbe 05cd a9bc a5f8 f33e
00000350: eab0 eabe 8a72 12be 4ead 0b3f e53e fd3e
00000360: 30d0 fcbd d117 a6be 76fb df3e fb45 10bf
00000370: a45e abbe be10 a4be 84f9 e13e e392 4fbe
00000380: fe8a b4be 888b b0be a9d5 28bf 8ebd 273e
00000390: 5223 ec3e 0859 b4be 5c6b 0f3f 9990 2ebf
000003a0: b3ff d43c 46d8 fa3e 664b bfbd 4f56 b3be
000003b0: 71f0 a2be 78b0 073f 0ad0 9cbe 3caa 093f
000003c0: 8f2d 62be 55ab e23e 9771 a9be eb85 56be
000003d0: 87c7 25be 86f6 6ebd 686f ffbe aaed 063f
000003e0: 53ae d13e bb6c b63e be07 bf3e 049a 183e
000003f0: a486 693e 618c 313c 89db 513d a79c 5bbd
